weights1.npy (npy, 256128 bytes, 1 tensors)

array f4 [32, 2000]
0.0077835135 -0.063514404 0.006384991 -0.03256394 0.13542293 0.047130603 -0.07844831 -0.13425796
-0.016368965 0.01569262 0.057373017 0.040224683 -0.050976217 -0.06023499 0.010429924 -0.10417972
-0.13138086 0.027620643 0.018088613 -0.008653095 0.09198387 0.019537715 -0.036054652 -0.14405979
0.0316174 -0.070854634 -0.0025020372 0.018923324 -0.06624791 0.06660653 0.057813082 0.15748
0.04288443 0.016600214 0.002367915 0.020066997 0.038997043 -0.06612831 -0.036490798 -0.03445874
0.03585133 -0.08016923 -0.032848965 0.019402368 0.0024122056 -0.021571003 0.07319785 0.12651059
0.030353041 -0.06395653 -0.06831674 -0.01319699 -0.09055955 0.10237678 0.14831479 -0.030484153
0.09548171 0.009719343 0.08502668 -0.025283989 -0.031839553 0.012465985 -0.06272341 0.08321284
-0.044573996 -0.044030935 0.07939993 0.07830345 0.012547739 0.18733796 -0.10553457 -0.025876665
-0.1588161 -0.031692136 -0.03170638 0.02887855 0.07351838 -0.02803351 0.025542883 0.1447254
0.07239429 0.04896679 0.031272255 0.17465469 0.08043648 0.009974307 0.015376926 -0.045237552
0.13928239 0.03346549 0.06397281 -0.0013308433 0.06295041 0.17133853 0.19736853 0.01745209
-0.0024762673 0.004399536 0.048404597 0.016483141 -0.011122855 -0.03928917 0.10984564 0.066308886
-0.03164183 0.043154843 0.056648854 -0.017664066 -0.019902747 0.040609475 0.03131193 0.09372248
-0.016876245 0.028182315 -0.005023634 0.021287702 -0.019931661 0.025358494 -0.0130028 0.03127478
-0.019009162 0.0007297486 0.009680871 0.020433018 -0.025231287 0.023139693 0.0035771474 0.029810484
-0.0077327527 0.0045229886 0.0073281243 -0.020452948 0.0015723731 -0.021252986 0.0007632451 0.011335088
0.00056213746 0.026742129 0.025086246 -0.008433677 0.03989008 0.011502407 0.00072966336 -0.02578818
-0.07435309 -0.0034560948 -0.0034561008 0.04023254 0.025138747 -0.018490689 0.012435358 -0.003223579
0.07608861 0.0055875643 0.023185449 0.039437212 0.030451344 -0.118875794 0.037976533 -0.056714755
0.09396907 -0.0050271465 -7.987114e-06 1.9684394e-07 0.12906623 0.03731579 0.028114852 0.019415433
0.07773116 0.044152346 0.019982625 0.11201874 0.0760552 -0.06926449 0.019415662 0.11018645
2.1303057e-07 -0.024491543 -0.0071285903 0.067977 0.017593665 -0.06028311 0.26082948 0.017480435
-0.043474786 -0.015455707 0.014554648 -0.0404233 0.021897683 0.0609125 0.045313656 0.21531707
0.0016340405 -0.0055637914 0.033039823 0.01422913 -0.019260027 -0.019260019 -0.019354174 -0.020294841
-0.009111173 0.0016516808 0.019417882 0.058151 -0.04905145 -0.014074677 -0.014074717 -0.014074592
-0.01407464 -0.014074561 -0.01407471 -0.014074717 -0.014074677 -0.014074579 -0.014074638 -0.014074652
-0.014074616 -0.014074598 -0.014074579 -0.014074663 -0.014074603 -0.014074609 -0.0140747 -0.01407464
-0.014074569 -0.014074673 -0.014074571 -0.014074694 -0.014074644 -0.0140745845 0.0051351604 0.02850868
0.028868262 0.028520375 0.028868308 0.02888878 0.3132476 0.0010618817 0.08196888 0.08196888
0.02612711 0.014132466 0.019744366 0.07440502 0.0024589545 0.18924017 0.19004689 -0.007474904
0.0630146 0.017481169 -0.035630494 0.034993786 0.01056016 0.010560104 0.015871787 -0.029791197
00000000: d80c ff3b d713 82bd 3039 d13b c461 05bd
00000010: 4fac 0a3e 050c 413d 82a9 a0bd eb7a 09be
00000020: 3518 86bc cf8d 803c f8ff 6a3d a3c2 243d
00000030: 70cc 50bd f7b8 76bd 46e2 2a3c 2d5c d5bd
00000040: b488 06be b044 e23c 922e 943c b6c5 0dbc
00000050: 0a62 bc3d 8f0d a03c 0bae 13bd 6984 13be
00000060: 3f81 013d 3c1c 91bd 38f9 23bb 1605 9b3c
00000070: fcac 87bd 0169 883d 69cd 6c3d 7042 213e
00000080: 96a7 2f3d 2cfd 873c 052f 1b3b 8b63 a43c
00000090: 5dbb 1f3d 486e 87bd 6077 15bd 9c24 0dbd
000000a0: d8d8 123d c42f a4bd a38c 06bd b7f1 9e3c
000000b0: 1816 1e3b acb5 b0bc c1e8 953d fe8b 013e
000000c0: f1a6 f83c a4fb 82bd a6e9 8bbd 3038 58bc
000000d0: 4977 b9bd ebaa d13d d5df 173e e7b9 f9bc
000000e0: ea8b c33d e13d 1f3c 7822 ae3d 5e20 cfbc
000000f0: 316a 02bd 213e 4c3c 2275 80bd 7e6b aa3d
00000100: 3993 36bd c859 34bd 6e9c a23d 8f5d a03d
00000110: 0895 4d3c 86d5 3f3e 8222 d8bd 4dfb d3bc
00000120: b0a0 22be 9dcf 01bd 8dde 01bd b592 ec3c
00000130: ce90 963d 88a6 e5bc 4f3f d13c e532 143e
00000140: 7543 943d 6791 483d 5617 003d aed8 323e
00000150: e2bb a43d 476b 233c 81ef 7b3c 034b 39bd
00000160: 0ba0 0e3e 1c13 093d 2d04 833d b16f aeba
00000170: 25ec 803d 5e73 2f3e fa1a 4a3e aff7 8e3c
00000180: df48 22bb fc29 903b e643 463d a707 873c
00000190: a33c 36bc aeed 20bd c0f6 e03d f4cc 873d
000001a0: dd9a 01bd 22c3 303d a108 683d 3bb4 90bc
000001b0: 160b a3bc 1f56 263d f040 003d 92f1 bf3d
000001c0: 0d40 8abc 99de e63c 4c9d a4bb 8c63 ae3c
000001d0: b947 a3bc 9ebc cf3c b209 55bc fc19 003d
000001e0: 1ab9 9bbc 994c 3f3a 849c 1e3c 2563 a73c
000001f0: d8b1 cebc 748f bd3c 936e 6a3b 1e35 f43c
00000200: 0863 fdbb 9435 943b c320 f03b f18c a7bc
00000210: 1618 ce3a be1a aebc 8314 483a ceb6 393c
00000220: 685c 133a 4f12 db3c ac81 cd3c 682d 0abc
00000230: c863 233d 9774 3c3c e146 3f3a bc41 d3bc
00000240: 6f46 98bd a67f 62bb c07f 62bb e0ca 243d
00000250: c6ef cd3c c979 97bc acbd 4b3c ae42 53bb
00000260: 58d4 9b3d e317 b73b 69ef bd3c ea88 213d
00000270: 1975 f93c 2775 f3bd 488d 1b3d bb4d 68bd
00000280: db72 c03d c3ba a4bb 6500 06b7 0d5c 5334
00000290: f029 043e 71d8 183d 1e51 e63c 1d0d 9f3c
000002a0: 8431 9f3d 17d9 343d 9ab2 a33c 156a e53d
000002b0: d4c2 9b3d 8ada 8dbd 980d 9f3c 6fa9 e13d
000002c0: 66bd 6434 7da2 c8bc f396 e9bb 8637 8b3d
000002d0: 9720 903c 6ceb 76bd 718b 853e 2133 8f3c
000002e0: 9e12 32bd ef39 7dbc 9e76 6e3c e792 25bd
000002f0: c562 b33c 637f 793d d09a 393d 147c 5c3e
00000300: 4d2d d63a 7750 b6bb c454 073d 4c21 693c
00000310: 34c7 9dbc 30c7 9dbc a58c 9ebc 5e41 a6bc
00000320: 0847 15bc 367d d83a 4012 9f3c be2f 6e3d
00000330: 2cea 48bd 7999 66bc a499 66bc 1e99 66bc
00000340: 5299 66bc fd98 66bc 9d99 66bc a499 66bc
00000350: 7999 66bc 1099 66bc 4f99 66bc 5f99 66bc
00000360: 3899 66bc 2599 66bc 1099 66bc 6a99 66bc
00000370: 2a99 66bc 3099 66bc 9299 66bc 5299 66bc
00000380: 0599 66bc 7599 66bc 0899 66bc 8c99 66bc
00000390: 5699 66bc 1699 66bc d944 a83b 098b e93c
000003a0: 227d ec3c 90a3 e93c 3b7d ec3c 2aa8 ec3c
000003b0: fd61 a03e d62e 8b3a 4ddf a73d 4ddf a73d
000003c0: 8508 d63c dc8b 673c f0be a13c a961 983d
000003d0: 6926 213b 2dc8 413e a79b 423e 0af0 f4bb
000003e0: cc0d 813d ab34 8f3c 48f1 11bd a555 0f3d
000003f0: 8504 2d3c 4904 2d3c 8d05 823c ab0c f4bc
